app/data.pt (torch, 7063 bytes, 6 tensors)

l1.weight f4 [8, 93]
0.41406572 0.3688396 -0.032593846 0.21978723 -0.22380581 0.47696513 0.46157518 0.8144626
-0.008274888 -0.008779271 0.10380158 -0.23334862 -0.07683052 0.72805977 -0.25679532 0.06711447
0.5313043 0.6460052 -0.28106683 0.50063914 0.6470039 0.36380234 -0.5587731 -0.056661762
0.6880016 0.73215735 0.3015934 -0.13855362 0.25461587 0.34802756 -0.86009496 0.49244595
0.90618247 0.2512665 -0.33855784 0.70216054 0.24923518 0.6943144 0.80973 0.45012888
0.41929585 -0.33568904 0.14160758 -0.0072032083 -0.5283023 0.630278 -0.37987348 0.6000501
0.59998286 -0.40311483 0.4224059 0.36972314 0.33879462 0.24625856 -0.28103718 0.50854623
0.01649102 -0.10976599 -0.3567115 -0.37700614 -0.48357293 0.19216464 0.04605032 0.068238266
0.5402224 -0.12354715 -0.44052672 0.19913052 -0.6657919 0.4355241 -0.0031535334 -0.049859546
0.66505766 0.6966358 -0.6446064 0.4225986 0.13674703 -0.0075952923 0.5589715 0.31440458
-0.087528326 0.38603324 0.21662176 0.18205121 0.3699234 -0.13624594 -0.11703016 -0.5476158
0.5044329 -0.40199158 -0.42680198 0.09814013 0.3462399 0.4637644 0.28023306 -0.1392904
-0.20886832 -0.30275202 -0.3793496 -0.26859236 -0.74712604 0.5370696 -0.010509027 -0.098034136
-0.22832474 0.5695101 0.47189575 -0.1573781 -0.17604102 -0.15799327 -0.2971771 0.011067192
-0.1512841 0.5045375 0.9498327 0.51773196 0.53959966 0.57557595 0.091233835 0.19339035
0.04728608 -0.26038492 -0.2762834 0.29951596 -0.14879045 -0.68921024 0.22358955 0.37229836
-0.38486046 0.55447114 -0.30863455 -0.33995318 -0.1715418 -0.22494121 -0.31116718 0.34624654
0.22000086 0.59444493 -0.60796267 0.33956495 -0.47419956 -0.3419542 0.62900054 -0.23330233
0.24687447 -0.19473219 -0.24432173 -0.18245155 -0.15344281 0.60978746 0.8195141 0.39087632
-0.14123324 0.580537 0.17488977 -0.07581343 -0.077595204 0.26347762 -0.054960497 -0.29780018
0.17609073 -0.16554163 0.42502865 0.67477286 0.3023437 -0.24529192 0.50092787 0.32043022
-0.28881654 -0.33506933 0.6410657 -0.22834146 -0.24975157 0.084101826 0.8834605 0.54196626
0.2379729 0.014552214 0.49348074 0.3335648 0.67450964 -0.13124336 -0.15819016 0.27333313
-0.05618628 0.121086985 -0.23049541 0.09447386 0.5618901 -0.1880984 0.546248 -0.18816464
-0.13716309 1.0882156 0.4012994 -0.10399741 -0.14461133 -0.20057257 -0.28006795 -0.77882725
0.52227616 -0.079015024 0.03200862 0.07779839 -0.10024737 -0.11913034 -0.784286 0.95687294
0.11442637 0.37291095 -0.804351 0.8047505 0.084337175 0.3787561 0.5456673 -0.03338824
0.834303 0.051123522 1.0864422 0.2776112 -0.1372548 -0.015520824 -0.18156493 0.053880904
-0.053372324 0.26638082 -0.018356498 0.49725085 0.50435096 0.31875932 -0.13306537 0.7777539
-0.06990488 0.6240381 0.86929846 0.16328104 -0.014405018 -0.2725044 -0.23648205 0.6740864
0.3845445 0.121994905 0.4519607 0.6136518 -0.09598788 -0.26470494 0.07525189 0.10696382
-0.050177995 -0.15410718 0.59906495 0.39014181 0.586937 0.27076158 0.5128923 -0.5678832
00000000: 6c00 d43e 8bd8 bc3e 2081 05bd e70f 613e
00000010: 5a2d 65be c634 f43e 9553 ec3e 9f80 503f
00000020: 6593 07bc eed6 0fbc ec95 d43d f1f2 6ebe
00000030: 5259 9dbd 2062 3a3f ad7a 83be 5073 893d
00000040: 8f03 083f 9960 253f fee7 8fbe e329 003f
00000050: 0ca2 253f 4d44 ba3e c10b 0fbf 2a16 68bd
00000060: df20 303f aa6e 3b3f 736a 9a3e 00e1 0dbe
00000070: 035d 823e ab30 b23e 2f2f 5cbf e021 fc3e
00000080: 93fb 673f 01a6 803e 7457 adbe cbc0 333f
00000090: 8237 7f3e 97be 313f 774a 4f3f 4b77 e63e
000000a0: f2ad d63e 6fdf abbe 9401 113e e408 ecbb
000000b0: d23e 07bf e659 213f c77e c2be e29c 193f
000000c0: 7a98 193f 1165 cebe 9645 d83e 5a4c bd3e
000000d0: 7d76 ad3e 342b 7c3e 1be4 8fbe 1630 023f
000000e0: 2d18 873c fecc e0bd e4a2 b6be f306 c1be
000000f0: df96 f7be cfc6 443e 439f 3c3d 81c0 8b3d
00000100: 044c 0a3f 4a06 fdbd b88c e1be dfe8 4b3e
00000110: 5771 2abf 04fd de3e 83ab 4ebb 8639 4cbd
00000120: 3841 2a3f b956 323f ed04 25bf d85e d83e
00000130: 6a07 0c3e eee1 f8bb c218 0f3f a3f9 a03e
00000140: 0d42 b3bd 26a6 c53e 18d2 5d3e a26b 3a3e
00000150: 9a66 bd3e 0e84 0bbe 82ad efbd 8d30 0cbf
00000160: 8422 013f d7d1 cdbe ca85 dabe b1fd c83d
00000170: 5b46 b13e 8772 ed3e b57a 8f3e 25a2 0ebe
00000180: 94e1 55be 5002 9bbe 1c3a c2be f084 89be
00000190: a743 3fbf 657d 093f 0e2e 2cbc 1fc6 c8bd
000001a0: f6cd 69be 6acb 113f 529c f13e ba27 21be
000001b0: 1944 34be fdc8 21be 9927 98be 2b53 353c
000001c0: 38ea 1abe 5f29 013f 3c28 733f 158a 043f
000001d0: 3423 0a3f f258 133f ced8 ba3d 1f08 463e
000001e0: 0caf 413d 2c51 85be 0575 8dbe 285a 993e
000001f0: 865c 18be 1570 30bf a9f4 643e e49d be3e
00000200: 6e0c c5be d2f1 0d3f 5905 9ebe 580e aebe
00000210: a7a8 2fbe fd56 66be 4e51 9fbe 3a47 b13e
00000220: e847 613e 8b2d 183f 71a3 1bbf 75db ad3e
00000230: 49ca f2be 9f14 afbe 2e06 213f cee6 6ebe
00000240: a9cc 7c3e e067 47be 7a2f 7abe 94d4 3abe
00000250: 1d20 1dbe 081b 1c3f adcb 513f f120 c83e
00000260: 729f 10be 139e 143f 4e16 333e 1244 9bbd
00000270: 3cea 9ebd 8ae6 863e 421e 61bd 4479 98be
00000280: 2151 343e bf83 29be 5b9d d93e eabd 2c3f
00000290: cbcc 9a3e ce2d 7bbe cf3c 003f 6e0f a43e
000002a0: c3df 93be 358e abbe e21c 243f 58d2 69be
000002b0: e0be 7fbe 943d ac3d 782a 623f 4dbe 0a3f
000002c0: 2baf 733e 696c 6e3c 82a9 fc3e 01c9 aa3e
000002d0: aaac 2c3f a964 06be 9afc 21be 52f2 8b3e
000002e0: 9623 66bd 74fc f73d fd06 6cbe 837b c13d
000002f0: 08d8 0f3f de9c 40be e9d6 0b3f 3bae 40be
00000300: 7b74 0cbe a64a 8b3f 1d77 cd3e 98fc d4bd
00000310: fe14 14be e562 4dbe 1165 8fbe 3961 47bf
00000320: e4b3 053f a1d2 a1bd 791b 033d c354 9f3d
00000330: 7e4e cdbd 9cfa f3bd f8c6 48bf a0f5 743f
00000340: 5f58 ea3d 2fee be3e f2e9 4dbf 2104 4e3f
00000350: f8b8 ac3d 52ec c13e dab0 0b3f 1bc2 08bd
00000360: e294 553f e666 513d 8a10 8b3f 0e23 8e3e
00000370: 868c 0cbe 0e4b 7ebc 28ec 39be 39b2 5c3d
00000380: f09c 5abd 1163 883e 5e60 96bc aa97 fe3e
00000390: 251d 013f 6c34 a33e 4a42 08be e11a 473f
000003a0: 4a2a 8fbd f6c0 1f3f 588a 5e3f 2533 273e
000003b0: 0603 6cbc b285 8bbe 5a28 72be ed90 2c3f
000003c0: 04e3 c43e 77d8 f93d 6567 e73e 4918 1d3f
000003d0: 4b95 c4bd 6887 87be aa1d 9a3d d90f db3d
000003e0: 7187 4dbd 46ce 1dbe 525c 193f abc0 c73e
000003f0: 8141 163f 43a1 8a3e e94c 033f cb60 11bf

l1.bias f4 [8]
1.3036525 1.0894231 0.60638016 1.1060808 0.8541719 0.6756731 0.7332514 0.813728
00000000: 16de a63f 3772 8b3f bb3b 1b3f 0e94 8d3f
00000010: 02ab 5a3f eaf8 2c3f 5db6 3b3f 7a50 503f

l2.weight f4 [8, 8]
-0.17395918 0.030893423 -0.12376161 -0.3628941 -0.15167442 -0.017966963 -0.096978426 0.23120788
1.4781746 0.8422414 -0.46137488 1.8263773 0.101227164 -0.19579358 1.770558 -1.2070836
1.2056011 -0.6383716 1.8247474 0.2946292 0.72871774 -0.23591457 -1.0513701 0.86322093
-1.2363179 1.3339766 0.94154465 -0.86603457 0.41584685 -0.35009128 0.5347514 1.2087698
0.56066674 0.60739946 0.7002617 -1.3227277 1.135753 -0.61426294 0.45454288 -0.33134577
-0.36571908 0.49626324 1.5251392 0.18359898 0.08896519 -1.2632922 0.41542268 0.99409884
1.2488145 0.69083166 -0.07932624 0.48246977 0.1604935 1.5962394 -1.3631499 0.41820014
0.59584695 1.2782199 -0.9901974 -0.6204573 1.4462802 1.7084256 -0.17912969 0.42328438
00000000: 5b22 32be 3414 fd3c ba76 fdbd 41cd b9be
00000010: 8a50 1bbe 742f 93bc a09c c6bd c2c1 6c3e
00000020: d334 bd3f 229d 573f 5439 ecbe bbc6 e93f
00000030: 3050 cf3d 1d7e 48be a5a1 e23f b781 9abf
00000040: 2351 9a3f 526c 23bf 5391 e93f a3d9 963e
00000050: 3f8d 3a3f 9793 71be 4c93 86bf 0cfc 5c3f
00000060: aa3f 9ebf bfbf aa3f 1209 713f 71b4 5dbf
00000070: e1e9 d43e 2a3f b3be 78e5 083f f8b8 9a3f
00000080: db87 0f3f 887e 1b3f 5a44 333f 244f a9bf
00000090: 5b60 913f 5640 1dbf d8b9 e83e 27a6 a9be
000000a0: 883f bbbe 3716 fe3e c337 c33f 5f01 3c3e
000000b0: 6233 b63d 8fb3 a1bf 48b2 d43e 437d 7e3f
000000c0: 27d9 9f3f 58da 303f cc75 a2bd 4706 f73e
000000d0: 6858 243e 9351 cc3f b27b aebf 541e d63e
000000e0: 6d89 183f b69c a33f 947d 7dbf 4ad6 1ebf
000000f0: b61f b93f b1ad da3f c66d 37be bbb8 d83e

l2.bias f4 [8]
-0.21199387 0.6897739 0.30054933 0.5293692 -0.11258924 -0.10535091 0.14400339 0.16848764
00000000: ec14 59be 0695 303f 9ae1 993e bd84 073f
00000010: 3095 e6bd 38c2 d7bd a075 133e 0688 2c3e

l3.weight f4 [13, 8]
-0.13226002 -1.9596351 0.4835421 -0.26023704 0.18683302 -0.30069774 0.3885394 0.32799187
-0.30262294 0.16035765 -1.0265158 0.468123 -1.1346498 0.6279888 -1.4490135 -0.54299825
0.13101417 -0.61 0.15553398 0.5578844 -2.3324623 0.121871345 0.18108228 0.20958741
-0.26018277 -2.0475745 0.30375957 0.45877358 -0.089075744 0.88141394 -1.6545875 -0.24142584
0.023585275 0.5150547 0.22796658 -0.49235398 -1.1815344 -1.980928 0.093960926 -1.4669071
0.2755534 -0.4729797 0.03248205 0.31321585 0.64260745 -0.026201537 -0.8852746 0.013713698
0.14681156 0.17234127 0.46727997 -0.66351813 0.15121551 0.19164775 -1.758272 -0.8543982
0.08350793 -0.32041988 0.7745768 -1.0405676 -1.8491751 0.34694767 0.40023664 -0.80231065
0.13534385 -0.541269 0.73540056 -0.98883533 -1.0606203 -1.7829772 0.4229032 0.59412926
-0.0649212 -1.326612 -0.7501499 0.6111871 -0.5942844 -1.543758 0.38597643 0.8172512
-0.26362178 1.0113302 -1.2232513 -0.84147894 -0.74490863 -0.77026427 -1.7289007 -0.729393
0.1410399 -0.08029654 -0.40377808 -0.6981068 0.66889656 -1.225725 -0.46109036 0.4551689
-0.20263627 0.30975023 -1.1721079 -1.1521451 -1.8310004 -0.8628299 0.085876375 0.6555367
00000000: 2c6f 07be 53d5 fabf d592 f73e ca3d 85be
00000010: 2851 3f3e 0ef5 99be a3ee c63e 8dee a73e
00000020: 65f1 9abe cc34 243e df64 83bf d1ad ef3e
00000030: 343c 91bf e0c3 203f 4679 b9bf ef01 0bbf
00000040: 9428 063e f628 1cbf 4d44 1f3e 83d1 0e3f
00000050: 1047 15c0 af97 f93d a26d 393e 159e 563e
00000060: ad36 85be 760b 03c0 6086 9b3e 5fe4 ea3e
00000070: 586d b6bd 58a4 613f 86c9 d3bf 5638 77be
00000080: e835 c13c a0da 033f 1270 693e d215 fcbe
00000090: 853c 97bf 0c8f fdbf 966e c03d 9dc3 bbbf
000000a0: 5615 8d3e 652a f2be e60b 053d d45d a03e
000000b0: ec81 243f 9ba4 d6bc 5ba1 62bf 6baf 603c
000000c0: c555 163e 3b7a 303e 523f ef3e 53dc 29bf
000000d0: 3dd8 1a3e 4f3f 443e 0f0f e1bf d7b9 5abf
000000e0: 3506 ab3d 130e a4be aa4a 463f 5231 85bf
000000f0: c5b1 ecbf 20a3 b13e d1eb cc3e 3b64 4dbf
00000100: 9497 0a3e 9b90 0abf 3643 3c3f 5024 7dbf
00000110: 68c2 87bf 9938 e4bf c586 d83e db18 183f
00000120: 68f5 84bd 6cce a9bf d309 40bf c276 1c3f
00000130: 0623 18bf dd99 c5bf b49e c53e 6037 513f
00000140: 6ff9 86be 4573 813f 8093 9cbf 2a6b 57bf
00000150: 55b2 3ebf 0a30 45bf 9e4c ddbf 80b9 3abf
00000160: c36c 103e 8372 a4bd 00bc cebe 21b7 32bf
00000170: ce3c 2b3f 8fe4 9cbf 0914 ecbe e60b e93e
00000180: e27f 4fbe 9597 9e3e a207 96bf 7e79 93bf
00000190: 395e eabf 6ce2 5cbf f4df af3d 41d1 273f

l3.bias f4 [13]
-0.40151536 -0.3583751 0.088261336 -0.024160543 0.075694114 0.002209392 0.14684458 -0.019503145
0.3869812 0.015078305 0.101136245 -0.4960465 -0.11176436
00000000: 6c93 cdbe f17c b7be 5cc2 b43d 55ec c5bc
00000010: 8405 9b3d 72cb 103b 6d5e 163e 0fc5 9fbc
00000020: 6622 c63e ff0a 773c 8520 cf3d cff9 fdbe
00000030: b6e4 e4bd
